models/cnn_model.pth (torch, 707864 bytes, 8 tensors)

conv1.weight f4 [32, 1, 3, 3]
000000 5b bb 4d bf b0 a9 82 be 13 86 ad 3d 75 9d 1a be
       -0.80364007 -0.25520086 0.08472838 -0.15099128
000010 d8 f1 f2 3c 07 d4 9e 3e 8e 25 04 3f 09 2c a9 3d
       0.029656336 0.3102114 0.51619804 0.08260352
000020 66 b7 79 3e 0b cd 3d 3d ef ea 5c 3e 5c 6b e5 be
       0.24386367 0.046338122 0.21573995 -0.4480847
000030 a1 c5 ca 3d 6a b4 88 3e 7f 7c 0d be 46 9d 85 3e
       0.09900976 0.26700145 -0.13817023 0.26096553
000040 f1 30 83 3e 4a a0 31 3e e7 9a 06 bf 34 65 0d bf
       0.25623277 0.17346302 -0.5258011 -0.5523255
000050 8c 34 6f be a5 fa d9 bd d4 9f 83 3e 36 c8 b5 3d
       -0.23359889 -0.1064351 0.25707877 0.08876078
000060 f0 92 25 3d 94 27 c6 3e a9 4a 77 3e d5 95 81 3e
       0.040423334 0.3870207 0.24149574 0.25309625
000070 5b 53 ab 3d 57 ff 44 3e fc 96 bb 3d c1 ae 96 3e
       0.08365508 0.1923803 0.09159657 0.29430202
000080 b1 91 84 3e 87 00 e8 be 3a 58 08 bf ac 04 dd bd
       0.25892404 -0.45312902 -0.53259623 -0.10791907
000090 42 87 1e be 98 e4 c2 bd fb d9 2d bf 24 54 02 3f
       -0.15481284 -0.09516257 -0.67910737 0.5090964
0000a0 0b 14 ce bd 23 9e 32 bf 16 20 0a 3f e4 38 e3 3e
       -0.10062417 -0.6977255 0.5395521 0.44379342
0000b0 f8 72 52 be bc a5 cd be 72 1b b6 be 69 80 0e bd
       -0.2055167 -0.40165508 -0.35567814 -0.03479043
0000c0 65 69 83 be da 1c fe 3e eb e0 ab 3e a4 ab af 3e
       -0.25666347 0.49631387 0.33570036 0.3431064
0000d0 36 c0 d0 3c d4 84 1d be 01 69 9d 3e e3 32 2b be
       0.025482278 -0.15382701 0.30744174 -0.1671863
0000e0 e8 5e dc 3d 18 8b 5c 3e e0 fa cd bd 9a f1 35 3e
       0.107602894 0.21537435 -0.10057616 0.17767945
0000f0 5a 88 81 be 15 aa ba 3e 81 1c 93 3e b5 22 89 be
       -0.2529934 0.36457887 0.28732684 -0.26784292
000100 1b 3e 13 be 01 9b c7 3e 74 16 84 be 8f 7f 92 3e
       -0.1437916 0.38985446 -0.2579838 0.28612944
000110 31 6d c5 3c b2 0c f4 be 4a 27 7e 3e 67 fa d3 3e
       0.024099918 -0.47665936 0.24819675 0.4140198
000120 41 b4 71 3e ed 35 db 3e 44 83 91 3e 10 ad 12 be
       0.23603918 0.4281458 0.2842046 -0.1432383
000130 6b cf a8 3e ac 4f 6d 3e 47 7a fd be a7 ae 2b bf
       0.32970747 0.23174924 -0.49507353 -0.67063373
000140 5a 01 ce be 3c 73 8c 3e 25 04 4c bc 16 ae 07 3e
       -0.40235406 0.27431667 -0.01245216 0.13250002
000150 e2 70 33 3e 61 97 15 3e 8b a2 97 3e c9 48 46 be
       0.1752353 0.14608528 0.29616198 -0.19363703
000160 45 80 8e 3e 1d d7 a7 3e 0d fb 0a bd 8c 8e c4 3d
       0.27832237 0.32781306 -0.033930827 0.09597501
000170 2e f6 f0 3d 0e 38 a2 be 07 45 10 3e 02 39 b6 3e
       0.11765705 -0.3168339 0.14088832 0.35590369
000180 8d 55 18 bd f5 fd 41 3e a4 0e d0 3d ec 6a 31 3e
       -0.037190963 0.18944533 0.101590425 0.17325944
000190 f8 ec 78 3e da 4f 05 3e 87 c0 7c bd 75 6c 9b 3d
       0.24309146 0.13018742 -0.061707046 0.07589046
0001a0 16 a6 b7 3e e8 4e 4f be ce 0b ce be 26 dd 44 be
       0.358689 -0.20244944 -0.4024338 -0.19224986
0001b0 98 a3 a0 be 5d e9 0c bf af 25 be bd 7a 93 25 3e
       -0.31374812 -0.55043584 -0.09284531 0.16169539
0001c0 5e 33 b6 3e 36 26 fa 3d 7c 43 94 3e 6e 96 41 3e
       0.35586065 0.122143194 0.28957736 0.1890504
0001d0 21 fd 4c be fb 7f ba 3e 98 5c 18 3d f8 1e 32 be
       -0.20018436 0.36425766 0.03719768 -0.17394626
0001e0 17 25 a7 be 93 93 8e be 8a 84 0a bf 38 45 e2 3e
       -0.32645485 -0.27846965 -0.5410849 0.44193435
0001f0 12 fb d8 bd ff 01 d0 3d 6a ab 95 3e 5c 2d 6c 3e
       -0.10594763 0.10156631 0.2923234 0.23064178
000200 ea 39 4e be 8a e2 ae 3e 24 f9 cf 3e 99 81 61 be
       -0.2013928 0.3415721 0.40619767 -0.22022094
000210 5e 0b 1f 3e 55 f2 77 3e b2 4b 32 3e 2d a9 94 be
       0.1553168 0.24213536 0.17411688 -0.2903532
000220 bf 78 e0 be ea a2 49 be 2f 61 1d bd 8c 6b 64 3e
       -0.43842122 -0.19691053 -0.03842276 0.22306651
000230 9d af 47 3e 3c ed 7b 3e f4 91 6d 3e cc d8 bd 3e
       0.19500585 0.24602216 0.23200208 0.37079465
000240 ec cd 00 3f f4 7a 59 be 3d 51 80 be 66 01 09 bf
       0.5031421 -0.21238309 -0.2506198 -0.5351776
000250 8d 1c 97 be 4a 76 75 bc 16 82 c2 3e 13 61 dc 3e
       -0.2951397 -0.014981816 0.37989873 0.43042812
000260 10 aa da 3b 2c f5 34 bc d3 45 c3 3e 62 fc c9 3e
       0.006673105 -0.011044782 0.3813921 0.39450365
000270 9c aa 3b bf 51 56 14 bf 52 8a b8 be 37 d2 9f 3e
       -0.73307204 -0.5794421 -0.3604303 0.3121507
000280 50 8a f3 3c 34 13 0d bd e5 4e 64 3e 83 75 78 3e
       0.029729038 -0.03444214 0.22295721 0.24263577
000290 ad d0 5e 3e 26 c5 9c 3b e3 36 8e 3e d2 5a 3d 3e
       0.21759291 0.004784244 0.2777625 0.18491676
0002a0 3f 3a c2 3b 47 ab 93 be 43 84 8c 3e 54 00 92 be
       0.0059273536 -0.28841612 0.27444658 -0.28515875
0002b0 d2 9c 8c be 7d 60 4f be 63 1d ce 3e 94 eb b9 3e
       -0.27463394 -0.20251651 0.40256795 0.36312544
0002c0 c8 86 30 be 09 ac 05 3e 71 ed 2f 3e 74 de 9a 3e
       -0.17238915 0.13053907 0.1718042 0.30247843
0002d0 5f 1e 13 3e 25 30 ba 3e dc 82 8c 3e ee 6f a5 bd
       0.14367054 0.36364856 0.27443588 -0.080779895
0002e0 d8 55 64 3e a5 71 90 3e 03 e8 b3 be 1f c1 93 3e
       0.22298372 0.28211704 -0.35137948 0.28858277
0002f0 45 d5 c5 3e 56 cb 0b bf df 1d ea be 51 43 91 be
       0.38639274 -0.5460714 -0.45725915 -0.2837167
000300 d6 fe 5b 3d 39 ec 7c 3e 76 46 18 3e ac 7f f4 3e
       0.053709827 0.24699487 0.14870629 0.47753656
000310 93 12 29 3e 68 0b 23 3e bb 0c ee 3e cd 16 a4 3e
       0.16510992 0.1592232 0.46494088 0.32048646
000320 44 b2 d4 3d 67 8c 69 3e 92 c2 03 3f 05 51 c4 be
       0.10385564 0.22807465 0.51468766 -0.38343063
000330 f0 8b 36 3e 9e 6c 02 bf c2 63 f7 be a0 ce a7 be
       0.1782682 -0.50946987 -0.48318297 -0.3277483
000340 31 c9 1b 3e 2d 3d 08 3e 31 71 a6 3e 62 c1 4f 3e
       0.15213467 0.13304587 0.32508233 0.20288613
000350 6e a3 ab 3e 38 4a 85 3e 5b a4 ae bd 3e be 81 3e
       0.33523124 0.26033187 -0.08527442 0.25340456
000360 6c 06 8a 3e 01 d0 b9 3d 00 57 5b be 79 04 13 3e
       0.26958025 0.09072877 -0.21419907 0.14357175
000370 75 f8 3f 3e 10 d4 c1 be 69 af 74 3e 11 47 a0 3e
       0.18747123 -0.37857103 0.23895039 0.3130422
000380 2a 96 24 bd ee a9 fe bd e3 d0 85 3e 21 53 2e bd
       -0.04018227 -0.12434755 0.2613593 -0.042559747
000390 74 e5 ba 3e 7d 6f cd 3d 07 bd 91 3e 85 af 1a 3e
       0.36503184 0.1003103 0.2846453 0.15106018
0003a0 99 65 56 3e 42 d0 ae 3e cb 80 88 be 03 05 1d bf
       0.20937194 0.34143263 -0.2666076 -0.6133577
0003b0 5d 5b 77 be 69 ae 81 bc 96 5e bf 3e a8 91 31 bd
       -0.24155946 -0.015830236 0.3737685 -0.0433518
0003c0 56 c6 32 bc 3a 25 8f 3e 16 82 89 3e 23 d9 a5 be
       -0.010911545 0.2795809 0.2685706 -0.32392225
0003d0 bc 86 bd 3e f1 6d 26 3e 8d 17 2c be 63 39 3d 3e
       0.37016857 0.16252877 -0.16805859 0.18478923
0003e0 f5 08 52 3e 99 99 84 be db b9 98 3e be 1c 30 bc
       0.2051123 -0.25898436 0.29829296 -0.01074904
0003f0 fc 89 3b 3b f7 69 be 3c f8 36 b3 3e e1 9b 8b 3e
       0.002861618 0.023243887 0.35002875 0.27267364

conv1.bias f4 [32]
000000 fd 84 22 bb 42 16 05 be 13 f4 7b 3e 24 19 f8 3b
       -0.0024798505 -0.12996772 0.24604826 0.0075713564
000010 a6 3d 9a 3e a4 68 8e bd 66 d2 ba be 0a bc cc bc
       0.3012516 -0.06953552 -0.36488646 -0.024992008
000020 8b a6 49 3e 49 67 f9 bd 42 46 03 3e 4d a6 ee bd
       0.19692437 -0.12177903 0.1281977 -0.11652813
000030 fa e0 50 bb cc 80 ed 3e ce 56 9a be 4a d0 31 be
       -0.0031872378 0.46387327 -0.30144352 -0.17364612
000040 ee 5a dc bc 81 f3 19 3e e9 78 21 be d5 5a 77 be
       -0.026898827 0.15034296 -0.1576878 -0.24155743
000050 61 c3 1e 3e b2 80 62 3c 96 db f8 bd 7b 1d cb bd
       0.15504219 0.013824629 -0.12151258 -0.09917732
000060 71 af a9 3d ea 6c 93 be de 77 4f 3e b5 7f 93 bd
       0.08285416 -0.28794032 0.2026057 -0.072020926
000070 a1 74 ac bd 64 81 47 3e 85 12 91 3c b7 18 fc 3d
       -0.08420683 0.19482952 0.017709026 0.123094015

conv2.weight f4 [64, 32, 3, 3]
000000 27 c6 f4 ba f5 27 53 3b c4 f6 42 3d 6a 8e 0b bd
       -0.0018674777 0.0032219861 0.047598615 -0.034071364
000010 37 60 53 3d 04 be 03 bd 11 f5 49 3d 5f cd c3 3c
       0.05160543 -0.032163635 0.04930598 0.02390164
000020 86 59 ba 3a 1b df 83 3b 30 75 50 3d be ef 02 3d
       0.0014217354 0.004024399 0.05089301 0.031966917
000030 ff c2 52 bd 6d 50 32 bd 92 98 bb bc 47 dd 13 bd
       -0.051455494 -0.04353373 -0.0228999 -0.0360997
000040 66 77 33 3d 01 53 fd 3c d3 4f 37 bd 3f 39 26 3d
       0.04381504 0.030923368 -0.04475386 0.040581938
000050 70 18 53 bd 24 75 19 bb ef 09 ef 3b ae 7f 63 bd
       -0.051536977 -0.0023415769 0.0072948853 -0.055541687
000060 94 25 48 bc 3a 06 1c bd 49 c9 e5 3c 50 f2 3e 3c
       -0.012215991 -0.038091876 0.028050082 0.0116544515
000070 f3 07 28 bd e9 8b 27 bd c0 69 0d bc 8d 1b 08 3d
       -0.041023206 -0.040904913 -0.00863117 0.0332294
000080 ec 44 a4 bc 5c 17 e5 bc 56 d7 11 bd ad 0d 51 3d
       -0.020052396 -0.02796524 -0.03560575 0.051038433
000090 bd e0 5e bd 37 42 d9 bc 14 d6 2b bd 07 e3 45 3a
       -0.054413546 -0.026520832 -0.041952208 0.00075487833
0000a0 b8 e2 2d 3a 62 1a cc 3c a3 49 1f bd 2d 7a 7b bd
       0.000663321 0.024914924 -0.038888585 -0.061395813
0000b0 97 25 59 bd e7 de bc 3c 7f ff 3a bd 58 ff 87 bb
       -0.053014364 0.023055507 -0.045653816 -0.0041503124
0000c0 06 da 53 bd 9a 8e e7 3c 41 1c 20 3d 4a 4e 21 3c
       -0.051721595 0.02826624 0.039089445 0.009845326
0000d0 77 3b 39 bd 05 bc 14 bc 85 9a fc 3c cd 49 0a 3d
       -0.045222726 -0.0090780305 0.0308354 0.03376179
0000e0 f6 b6 25 bc 9d 2e fc ba 73 a1 f1 3c d4 78 39 3d
       -0.010114422 -0.0019239966 0.02949593 0.045281246
0000f0 8b 59 6d bd 23 11 4b bd 9e 05 bd bc f5 e3 61 bd
       -0.057946723 -0.04957689 -0.023073968 -0.055149037
000100 27 ea 64 3c d2 d2 2e bd 80 22 27 bd 09 dd 22 3d
       0.013971842 -0.042681523 -0.040804386 0.039761577
000110 42 3d 29 3d 0e b3 76 bd 58 70 fb bc be 32 70 bc
       0.041318186 -0.060229354 -0.030693218 -0.014660535
000120 00 7d fa bc f4 d7 25 bd fe 32 24 bd b6 0b 2b bd
       -0.030577183 -0.040489152 -0.040087692 -0.041759215
000130 a5 38 e2 3c fc 92 6e bd e4 e8 e6 bb 36 0d 90 bc
       0.0276149 -0.058245644 -0.0070468057 -0.017584424
000140 35 82 d7 bc 5b b7 88 bc e7 58 ad bc ed b7 cb 3c
       -0.026307205 -0.016688993 -0.021160556 0.024867976
000150 51 ec ce 3b c2 e4 2f bd d5 14 60 bd 5a de 43 3d
       0.006314792 -0.04294277 -0.054707367 0.047819473
000160 35 11 2a 3d 77 13 1c 3d d3 5d 72 bd db ef de 39
       0.041520316 0.0381045 -0.05917151 0.00042521846
000170 58 2b 14 3d db db 45 bd 75 92 e2 ba 20 f0 4f bc
       0.03617415 -0.048305374 -0.0017286079 -0.012691528
000180 4a af 39 bc 8e 0d 4c 3c f2 41 11 bc 08 88 10 3d
       -0.011333296 0.012454404 -0.00886582 0.03528598
000190 02 1d 2b 3d 66 1e 63 bd 59 f7 dc bc 47 f2 38 bc
       0.04177571 -0.055448912 -0.026973413 -0.011288232
0001a0 2d 43 99 3c 97 7d 68 bd 1a 8c c6 3c 8a 81 77 bc
       0.01870879 -0.056760397 0.024236728 -0.015106568
0001b0 58 ac 0a bd d3 04 d0 3c 99 ee e2 bc cc c9 53 bd
       -0.033855766 0.025392925 -0.027701663 -0.05170612
0001c0 a6 46 af bc 7d a4 2b 3d 7d 6e 0d b8 2f 4e 2c bd
       -0.021395992 0.041904915 -3.371992e-05 -0.04206675
0001d0 49 05 be 3a 3e fa 1b 3d da 1f 68 bc df 3b 3d bd
       0.0014497425 0.038080446 -0.01416775 -0.046199676
0001e0 1f e3 85 3c f2 af 15 bd 4a 18 98 3b 3a 10 09 bd
       0.016343651 -0.036544748 0.0046415674 -0.03346274
0001f0 8e 5f 2b 3c 1b 6f 14 3d 1e 5f 36 3d 9a e7 ea bb
       0.010459794 0.03623877 0.044524305 -0.0071687223
000200 6c 14 80 3c 92 9b 2e bd 97 ae fe 3c f7 25 58 bd
       0.015634738 -0.042628832 0.03108911 -0.05277058
000210 da c2 11 3b ce 30 24 3d 91 17 37 bd b1 d6 22 3d
       0.0022241385 0.040085606 -0.04470021 0.039755527
000220 f2 65 2c bd bc 87 18 bd a7 0b 65 bd 29 78 4f bd
       -0.04208941 -0.03723882 -0.055919316 -0.050651703
000230 73 5b 17 3b 74 c1 42 3d dc 1e 5d bd 46 3b 2b 3d
       0.002309528 0.047547773 -0.053984508 0.041804574
000240 8f 10 a8 bb 91 f6 d4 bc 09 ca db 3c 8f a6 34 bd
       -0.005128927 -0.025996478 0.026829736 -0.044104155
000250 c3 94 d2 bc 4b 7c e1 bc 67 8e 29 3d dc 89 03 bd
       -0.0257057 -0.027525088 0.04139557 -0.032113895
000260 2b 73 b3 3c 9f a8 0d bd 21 67 1a 39 dc a3 2c bd
       0.021905502 -0.034584638 0.00014725003 -0.042148456
000270 de f1 6c bd 53 25 00 bd 37 4d f2 3b f9 ff f4 bc
       -0.05784785 -0.031285595 0.0073944586 -0.029907214
000280 24 36 e4 bc 96 a2 28 3d 4e 5b 64 bc aa 4f 2b 3d
       -0.027857848 0.04117068 -0.013937784 0.04182402
000290 9b 79 18 bd 9d ea 48 bd db 0d 5d bd d2 c3 63 bc
       -0.037225347 -0.04905187 -0.05396829 -0.013901668
0002a0 b4 c4 22 3d cf ac bb 3c 03 b7 60 bd f5 10 02 bd
       0.039738372 0.02290955 -0.054862034 -0.031754453
0002b0 e7 56 e7 bb 97 e5 a1 3c e9 fe cf bb e4 6b 0d 3d
       -0.00705992 0.019762797 -0.0063475263 0.03452672
0002c0 7c 56 59 3d 9d b5 eb 3c d9 86 51 3d af b2 96 bc
       0.053060994 0.028773123 0.05115399 -0.01839575
0002d0 82 8c b1 3a f8 0d 9e bc 33 8f eb bc 3e d9 4d bd
       0.0013545903 -0.01929377 -0.028754806 -0.050256006
0002e0 cb 29 d4 bc 54 c0 50 3d fb 3c 10 bd 36 5d b8 bc
       -0.025898835 0.05096467 -0.035214406 -0.022505384
0002f0 e8 d4 1a bd b9 9e 6c 3d de b5 a3 3c a0 5b 4f bd
       -0.0378007 0.057768557 0.019984182 -0.05062449
000300 80 b2 b5 3c 72 6c 1f bc a3 58 c9 3b 93 ca bc 3b
       0.022179842 -0.009730445 0.0061445995 0.0057614534
000310 b6 ce 09 3b 2a b8 e2 bc 61 80 48 bd 2e 4f f3 3c
       0.002102775 -0.027675707 -0.048950557 0.029700842
000320 ab 06 4e bd 0e 21 1c 3d d4 32 0e 3c 02 75 dc bc
       -0.050299328 0.03811746 0.008679111 -0.026911262
000330 74 fd e6 ba 04 6e e5 3b 6c 8a db bc 96 2b be bc
       -0.0017623142 0.0070016403 -0.026799403 -0.023214143
000340 78 c5 49 bd 5b 38 4e 3c 47 5b 23 bd 3f 8d 57 bd
       -0.049260587 0.012586678 -0.03988197 -0.052624937
000350 35 1e ce 3c bb f6 1e 3d 76 3d 74 bd cc e0 b3 bb
       0.025160888 0.03880952 -0.059628926 -0.0054894444
000360 fc 40 1d 3d 6a 74 d8 3c 35 a4 e3 3c ac bc a4 3b
       0.038392052 0.026422698 0.027788261 0.0050273743
000370 e3 8d c8 bc 1c 9c 9d bc ec 65 39 3d e4 2b 0e 3d
       -0.02448172 -0.019239478 0.045263216 0.034709826
000380 ee cb 02 bd b7 a1 08 3d 26 55 04 bd 01 8b 50 3d
       -0.031932764 0.03335735 -0.032307766 0.050913814
000390 59 39 f3 3b c5 fb 17 3d 75 06 0e 3d 90 14 4c bc
       0.007422608 0.03710534 0.034674127 -0.012456074
0003a0 88 98 85 bd 8f 3b 42 3d b1 b8 cf 3c ed 32 dc bc
       -0.06523234 0.04742008 0.025356622 -0.026879752
0003b0 4e 25 00 3d 83 ac 2b 3c 1e d7 db 3c bf 40 1e bd
       0.031285577 0.010478142 0.026835974 -0.038635965
0003c0 59 25 aa 3c d6 0d dd bc 05 76 51 bc b1 88 35 3d
       0.020769762 -0.026984137 -0.012784486 0.044319812
0003d0 d5 1a 5a bc 96 66 6a bd 1d 28 5b 3d 82 de 38 bc
       -0.013312061 -0.05722674 0.053505052 -0.011283519
0003e0 cf 8f 51 bd 78 be 0c 3d 20 1e 3a 3d 19 6a 05 3d
       -0.051162537 0.034361333 0.045438886 0.032571886
0003f0 8c 1a 43 3d cd 09 71 bd da ea bd 3c ee 8a 60 3c
       0.04763274 -0.058847237 0.023183275 0.013704998

conv2.bias f4 [64]
000000 17 68 01 bb fb a3 cc bd f0 59 b2 bd 08 7d 0e bd
       -0.001974588 -0.09992214 -0.087085605 -0.034787208
000010 49 ca 90 bc b6 0e 10 bd 1b 02 84 bd 83 82 06 bd
       -0.017674582 -0.03517028 -0.06445714 -0.03283931
000020 8b 7a c2 3c 70 f9 ca bd c4 1d 53 bd 19 39 93 bd
       0.023740074 -0.09910858 -0.05154206 -0.07188625
000030 e3 cc 20 bd 29 26 20 bd 81 35 40 bd c4 60 93 bd
       -0.039257895 -0.039098892 -0.046926025 -0.07196191
000040 7e cb 94 bd 51 8f 93 bd 45 4d e8 bc 9d 5c 2b bd
       -0.072653756 -0.0720507 -0.028357157 -0.04183637
000050 0e f4 de bc 17 21 19 be 1d 96 09 3c f4 dc 6e bd
       -0.027215984 -0.14954029 0.008397606 -0.058316186
000060 90 88 39 bd 73 e1 a0 bd aa 33 62 bd ad 85 88 3b
       -0.04529625 -0.07855501 -0.055225052 0.004166326
000070 40 04 80 bd 47 c9 a3 bb 8d 47 a9 bd d0 ed 9c bb
       -0.062508106 -0.0049983594 -0.082656 -0.0047890916
000080 5c 7c 38 bd 54 33 91 bd 9d e4 33 bd de 75 a3 bc
       -0.045040473 -0.07089868 -0.043919194 -0.019953664
000090 4e 6f 60 39 2e a9 0f bd ef 29 45 bd 40 21 ec bd
       0.00021403769 -0.03507345 -0.048135694 -0.115297794
0000a0 2c 9b 8c bd ef cc 8d bd 4f 1d 74 3c 62 37 38 bc
       -0.06865534 -0.069238536 0.014899566 -0.011243673
0000b0 02 d1 f5 3c 59 30 4f bd 79 21 be 3c 62 50 c4 bb
       0.03000689 -0.050583217 0.02320932 -0.0059910277
0000c0 a9 eb 4d bd ab c9 af 3c 57 61 85 3b 3e c1 28 be
       -0.05027357 0.021458467 0.0040704417 -0.16479966
0000d0 44 2b 7a bc 52 45 31 be 4f 5c f8 bd de 49 17 be
       -0.015269104 -0.173116 -0.121269815 -0.14774272
0000e0 76 14 79 3c d1 66 e6 bd a9 76 bb bd 87 d7 97 bd
       0.015202632 -0.112500794 -0.09153492 -0.074141555
0000f0 3f b7 57 bd 8d cf c3 bd 3c 72 c2 bd 8f 1b d1 3c
       -0.05266499 -0.095610715 -0.09494445 0.025525836

fc1.weight f4 [50, 3136]
000000 53 b4 9e bb 13 c8 c7 3b f7 e7 be bb ea 6c dc 3b
       -0.0048432737 0.0060968488 -0.005825992 0.0067268508
000010 e5 79 92 bb 8e c1 8b bc 97 7e 32 3c 28 07 6a 3c
       -0.0044700974 -0.017060068 0.010894439 0.014283933
000020 36 df 8e bc 4a 95 92 3b 4a ec 5d bc 1e 90 26 3c
       -0.01744042 0.004473363 -0.013545105 0.010166196
000030 80 bc a3 3a a5 23 27 bc 81 3e 49 bc 5c 14 7d 3b
       0.001249209 -0.010201369 -0.0122829685 0.0038616871
000040 37 c2 25 3b 63 92 78 3c 87 4a 52 bc f6 da 86 3c
       0.0025292763 0.01517162 -0.0128351515 0.01646183
000050 34 06 81 3c 01 5d 7e bc 40 44 00 bb dc e4 1d ba
       0.015750028 -0.015525104 -0.001957193 -0.00060231774
000060 78 68 dd bb 26 10 8c 3c a3 01 07 bc dc 14 ba ba
       -0.0067568384 0.017097544 -0.008240136 -0.001419689
000070 33 66 86 bb dc 55 2c ba c8 00 62 bc 4c 75 26 bc
       -0.0041015386 -0.00065740733 -0.013794132 -0.010159802
000080 0a 04 f3 3b 1c 8e 27 bc f8 bc 84 3c 65 2a 92 bb
       0.007416253 -0.010226753 0.016203389 -0.00446062
000090 93 24 8b 35 ea d1 e3 bb 0a 7c 58 3c 41 e5 34 3c
       1.0366952e-06 -0.006952514 0.013213167 0.0110409865
0000a0 27 d1 82 3c 57 0a 80 3c f7 32 34 3b 21 fd 5c 3c
       0.015968872 0.01562993 0.0027496198 0.013488085
0000b0 7c f3 fa 3b 0a cf b7 bb 2c c4 81 bc c5 85 3b bc
       0.00765842 -0.005609398 -0.015840612 -0.011445467
0000c0 fc e2 a7 bb db cd 4f 3b cc 12 3a bd 0f f4 2d bc
       -0.005123494 0.0031708393 -0.045428082 -0.01061727
0000d0 90 2e 0f bc 79 e2 a2 bc f7 6f 3b bd d2 0a 52 3a
       -0.008739129 -0.019883381 -0.045761075 0.00080124766
0000e0 83 f3 00 bd 6e 5e 04 bd 14 fa 16 3c 57 ec d5 3c
       -0.03148223 -0.032316618 0.009214897 0.026113672
0000f0 de 19 bf 3c c9 55 78 bc 40 d8 47 bd 7c 48 34 bc
       0.023327764 -0.0151571715 -0.048790216 -0.01100361
000100 ae 51 86 3d bc 02 53 3d fb 0c 3a 3d 49 b5 6a 3d
       0.06558548 0.05151628 0.045422535 0.057301793
000110 42 ec 37 bc a0 72 dc bd 68 9a 05 3c de 32 c6 bd
       -0.011225762 -0.107640505 0.008154489 -0.09677671
000120 6f b2 2f bc aa 10 2c 3d cf 14 5d bc b2 25 01 bd
       -0.010723694 0.04200808 -0.013493731 -0.03153009
000130 35 9a d2 bd de d0 45 bd 4d ac 95 bd 1d ce a1 bd
       -0.10283319 -0.048294894 -0.073082544 -0.07900641
000140 ca 84 45 3b 51 06 64 bd 7f 7f 14 bc d8 85 14 bd
       0.0030138963 -0.055670086 -0.009063601 -0.036260456
000150 4f 1d 0f bd 8e a0 7f bd 1a 15 bb 3c 12 f1 82 3d
       -0.03494006 -0.062408976 0.02283721 0.06393637
000160 2b 36 d4 3c 2d b5 21 3d 69 9e 02 3c e0 8d ce 3b
       0.025904736 0.039479423 0.007972338 0.006303534
000170 6d 1e 44 3a a3 6a ef 3c 54 67 f3 3d d1 6b 60 bc
       0.00074813404 0.029225653 0.11884943 -0.01369758
000180 ca 78 2d bc 3f 34 23 bd 5e 5a 79 3d 4e db 19 bd
       -0.01058788 -0.039844748 0.060877196 -0.03756266
000190 94 06 d8 bd 9a 92 aa 3d 65 08 a9 3d d7 8e 62 bc
       -0.1054813 0.08328743 0.08253554 -0.013828001
0001a0 36 5b a2 3b 91 ad 9b bd be 21 eb bc 89 fd 0a bd
       0.004954721 -0.076014645 -0.028702613 -0.033933196
0001b0 91 3a 83 bd a8 62 68 bd f4 57 3c bd e3 95 1e 3c
       -0.06407655 -0.05673471 -0.045982316 0.0096792905
0001c0 73 f8 ad bd 03 0c 02 bd 25 c7 08 bd ce 0f a0 bd
       -0.084946536 -0.031749737 -0.033393044 -0.078155145
0001d0 b5 69 84 bd d7 e9 3b bd 5f 77 0d 3d 56 d5 ff 3d
       -0.064654745 -0.045877304 0.03453767 0.124918625
0001e0 6b 8e 4a bc 8d ae 65 bc 8b fd 01 bd e9 42 80 bd
       -0.012363057 -0.014018667 -0.031735938 -0.06262762
0001f0 a8 41 42 3d 04 5e ba 3d b2 bb 6c 3d e9 d7 3a 3c
       0.047425896 0.09099963 0.057796188 0.011404016
000200 08 5e 37 bc 87 0e a9 3d d2 e6 59 bd fd ec 1c 3d
       -0.011191852 0.08254724 -0.053198643 0.038311947
000210 e3 be f6 3d c2 be ce 3c 5a 01 c9 bb 68 7c de bc
       0.120481275 0.025237445 -0.0061341943 -0.02715893
000220 7d 10 40 bc 73 39 0f 3d cf f5 3d 3c 96 34 3c 3d
       -0.011722681 0.034966897 0.01159425 0.045948587
000230 c3 84 c7 bd df 0c 82 bd a1 08 ed bc 69 e3 d7 bc
       -0.09742119 -0.06350111 -0.028934779 -0.026353555
000240 f2 87 b6 bc e6 6a 44 bd ad b9 9d 3c ad 5e 6b ba
       -0.02228162 -0.04795351 0.019253576 -0.00089786464
000250 33 42 88 3c d7 d7 1e bd d5 25 ae 39 df a9 79 3b
       0.016633129 -0.03878006 0.00033216053 0.0038095636
000260 71 df 22 bd 8c ba c7 bc 04 d5 67 bd 79 30 4f bd
       -0.03976387 -0.024380945 -0.056599632 -0.050583337
000270 dc bd 5c bd 52 24 e1 bd 27 81 90 bd 32 8f 84 3c
       -0.053892 -0.10993256 -0.07055884 0.016181562
000280 c2 d5 7f 3c 70 85 26 bd 23 de a8 bd 6f 59 ad bd
       0.015614929 -0.0406546 -0.08245494 -0.08464324
000290 3d 69 78 bd bd 04 08 be 03 51 7d bb 2d b7 26 3c
       -0.060647238 -0.13283058 -0.0038653023 0.010175508
0002a0 3c 60 04 3d a0 89 94 3d f7 8e e9 3d 88 11 85 3d
       0.03231834 0.072528124 0.114042215 0.064974844
0002b0 21 23 ac bc 98 3d f4 3c c6 86 91 3d df a0 c3 bc
       -0.021012845 0.029814526 0.07105784 -0.02388042
0002c0 19 da ab 3c 3c ea 9b 3c 29 3c 97 3d 68 75 3f 3d
       0.02097802 0.01903259 0.073845215 0.046742827
0002d0 72 4c 47 3d fb bb 9d 3c 06 1e fc bc f4 ea a2 bc
       0.04865689 0.019254675 -0.030776035 -0.019887425
0002e0 e4 43 13 bd b1 43 5d bc 48 78 6c bd ad 6e df bc
       -0.035953417 -0.013504908 -0.057731897 -0.027274454
0002f0 a9 70 ce 3c b8 ed b7 bc 42 bc 7d bd 82 22 5f bd
       0.025200205 -0.02245222 -0.061947115 -0.05447627
000300 ad 34 18 bb 1e c0 5d bb df 32 18 bd 0a d4 ed bb
       -0.0023224757 -0.0033836435 -0.03715789 -0.007257943
000310 98 c1 0e bc 23 53 62 bd 83 a8 d0 3c 8f 64 85 bc
       -0.0087131485 -0.055255067 0.025470978 -0.016283302
000320 71 b1 30 3c 4b f4 0b bd 5a 1a ab bc 58 44 38 3b
       0.010784493 -0.034168523 -0.020886589 0.0028116908
000330 7c 93 23 3b b9 71 49 3d 3f 4d 4a 3c 47 7d 87 3a
       0.0024959734 0.04918072 0.0123475185 0.0010337018
000340 ec 1d 8a 3c ee d1 d8 3c 44 5b 80 3b 89 64 de b8
       0.016859971 0.02646729 0.0039171297 -0.00010604511
000350 00 c8 d4 bc f5 85 39 3b f5 99 e7 3c b3 fb 25 bd
       -0.025974274 0.0028308604 0.028271655 -0.040523242
000360 f2 3c 76 bc dd 39 0e 3d 7e ef c4 3c 2c f1 c2 bc
       -0.015029179 0.03472315 0.02403998 -0.02379664
000370 0d 6c aa 3d 09 fe 53 bd 60 72 c8 bd 1f d0 02 3d
       0.0832139 -0.05175594 -0.0978744 0.03193676
000380 3f bf 02 3b 5f 35 ad bc 6f 3a 8e bc 28 fa 9c 3b
       0.0019950417 -0.021143613 -0.017361848 0.004790563
000390 e1 41 8d bd 52 b1 91 3b 2b 80 2c 3d a6 7b 33 bd
       -0.06897331 0.004446187 0.042114418 -0.043819092
0003a0 a1 36 8a bd 0d 48 53 bb e8 38 4b bd 5e d2 d8 3c
       -0.06748701 -0.003223899 -0.049614817 0.026467498
0003b0 36 ff bc 3d 3b 6e d8 3c 47 70 e4 3c 02 c9 e1 3c
       0.09228365 0.02641975 0.02788557 0.027561668
0003c0 93 55 8b 3c f9 49 0a bd 04 42 3a 3d f7 01 b6 3c
       0.017008578 -0.033761952 0.045473114 0.022217734
0003d0 3e 36 82 3c 01 85 95 3c 00 0a df bb 0c 71 96 bb
       0.015895005 0.018251898 -0.006806612 -0.004591113
0003e0 79 14 8c bb 91 13 d0 bc bb eb bd bc ab 8f 8c 3b
       -0.0042749015 -0.025399955 -0.023183694 0.0042895875
0003f0 d2 65 5e bc 09 8e 0e bc 91 d2 bb bc be 2d a7 3c
       -0.013574081 -0.008700856 -0.022927554 0.020407554

fc1.bias f4 [50]
000000 6f c8 d9 3c f9 7e e9 bb 5a 21 98 3c 57 a4 5e 3c
       0.026584832 -0.007125732 0.01857059 0.013588986
000010 f1 de 98 3c c8 8d 93 3b d2 e0 8e ba 28 89 10 3c
       0.018660994 0.0045029856 -0.0010900742 0.008821763
000020 5b e8 34 bd 23 0b 5f bc 61 1f 12 3d d6 a3 26 3d
       -0.044166904 -0.013613495 0.035674457 0.04068359
000030 65 7f b9 3b 3c 24 49 bc c1 a0 48 3c bb b0 e8 bb
       0.0056609386 -0.012276705 0.012245358 -0.007101146
000040 39 bc 8a bc 0e 27 93 bc 36 5c f5 3c d5 6b 46 3c
       -0.016935455 -0.017962959 0.029951196 0.01211067
000050 62 94 20 bd d3 76 07 3c 36 59 2e 3c d6 0e 43 3c
       -0.03920401 0.008268076 0.010641387 0.011905393
000060 de 3c a9 3c ab a4 0e bc b6 c1 5d bc 81 ff d2 bc
       0.020658907 -0.008706252 -0.013534954 -0.0257566
000070 9d 20 90 3c c5 e0 b7 3b 70 73 18 3c dc 03 e0 3c
       0.017593676 0.0056115114 0.009304866 0.02734559
000080 d6 49 74 3d 3f c2 5d 3c d5 dc 5e bb 2e c1 9e bb
       0.059640728 0.013535081 -0.0034006138 -0.004844806
000090 b6 0d 3f 3c dd 3d 50 bc f8 37 33 bc 7b 9b 07 bc
       0.011660984 -0.012710062 -0.010938637 -0.0082768155
0000a0 f7 92 a4 bc 18 88 8a 3b ae 3d 2e 3c a3 a4 07 bc
       -0.02008961 0.0042276494 0.010634823 -0.008278999
0000b0 b1 89 71 bc ea 0f 9f 3b 02 27 b8 bc 41 d4 ed bb
       -0.014742301 0.004854192 -0.022479538 -0.0072579687
0000c0 96 d9 7a 3c 59 0e 97 bc
       0.015310666 -0.018439459

fc2.weight f4 [10, 50]
000000 06 75 40 be 20 5a d9 3d 15 db 19 be 23 95 e4 3d
       -0.18794641 0.10612893 -0.1502498 0.11161258
000010 de 90 2f be 9d b2 41 3d 97 eb 6f bc 1c f3 3d 3e
       -0.17145106 0.04728948 -0.014643571 0.1854977
000020 b0 28 9e be 67 46 8c be bd ba a4 3d d5 25 03 3e
       -0.30890417 -0.27397463 0.0804343 0.128074
000030 05 5f e3 bd e7 a2 4e 3c af 5a d6 3d ce 50 9a bb
       -0.11102108 0.012612081 0.10466515 -0.0047093397
000040 c7 b9 98 be 3f 37 42 3c 66 59 36 3e e8 34 9d bd
       -0.29829237 0.011853992 0.1780754 -0.07676107
000050 cf 9e bc bc 9d e9 8d be a9 5c bf bd 1a 80 1d be
       -0.023024945 -0.27717295 -0.093438454 -0.15380898
000060 60 a8 d8 3d 94 12 d5 3d f6 a8 59 3d 06 a9 5a be
       0.1057899 0.10403934 0.05313965 -0.2135354
000070 6e 96 12 3e c3 a6 0c 3e 04 74 c6 3d 76 f6 a3 be
       0.14315197 0.1373549 0.09690097 -0.32023972
000080 58 2a b2 be 64 dc 5a be d8 2a 08 3d ec 83 2b bd
       -0.3479793 -0.21373135 0.033243984 -0.041873857
000090 03 03 9b 3c d7 d5 d2 3d 4f 7f de bc 5d 53 78 bc
       0.018922335 0.10294693 -0.027160315 -0.015156594
0000a0 60 a6 7f be 1f f6 06 3e ff 36 8d 3c 45 e1 d8 bc
       -0.24965811 0.13179825 0.017238138 -0.026474604
0000b0 c7 1d 87 bc 11 a1 09 be 7a ab 91 3d 72 fd 99 3d
       -0.016493691 -0.13440348 0.07112785 0.07519044
0000c0 5c 41 d3 3d 4a 6d c1 bd 7f 28 41 3e 00 47 6e be
       0.10315201 -0.09444673 0.18863104 -0.23269272
0000d0 a4 44 33 3e 09 10 59 be 62 0f cb 3d 1b cf ae 3d
       0.17506653 -0.21197523 0.099150434 0.08535596
0000e0 7b a6 38 bc d2 46 55 be c9 10 bf bd 70 10 a4 bd
       -0.011270161 -0.20827797 -0.093293734 -0.08010948
0000f0 5f 33 ed 3d 26 03 ee 3d 20 b7 16 3e 07 62 e1 ba
       0.11582064 0.11621694 0.14718294 -0.0017195352
000100 49 d7 63 bd 3e 8d 1f bd 2e 09 80 be 70 d9 7f b9
       -0.055625234 -0.03895306 -0.25007004 -0.00024399697
000110 ad 9a 1f 3e 9e 28 0b 3e 1e 52 45 bc 4c b1 4e 3d
       0.15586348 0.13589713 -0.012043504 0.050462052
000120 2b 1a 6f 3d ed ed cf 3d 72 b7 98 3d 6f b9 55 be
       0.058374565 0.101528026 0.074568644 -0.20871519
000130 b1 68 b2 bc 62 8b 06 be 05 6c 04 3e 5c a8 ff bd
       -0.021778436 -0.13139108 0.12931831 -0.12483284
000140 26 aa 06 be 6d 72 ee 3d ba 8e c8 3d 55 43 29 3e
       -0.13150844 0.11642919 0.09792848 0.16529591
000150 fa 56 4a be f1 8d ae bd 43 fe 81 bd e4 07 5b be
       -0.19759741 -0.08523167 -0.06347325 -0.21389729
000160 c6 c2 99 bd e6 ef cf bd af 09 10 be a5 b3 c7 bd
       -0.07507853 -0.10153179 -0.14066194 -0.09751061
000170 22 92 a4 3d cb c0 e4 3d 6e 4f bf bd 1b 22 3d 3d
       0.08035685 0.11169585 -0.09341322 0.046175104
000180 c1 4c 59 be 9f f3 ed bd 7d 1e 57 be 17 80 c5 3d
       -0.21220686 -0.11618733 -0.21007724 0.09643572
000190 06 4f 4b 3e d4 84 d7 3d 72 03 5a be 7f 66 28 be
       0.19854364 0.10523382 -0.21290377 -0.16445349
0001a0 f1 c3 0d 3e ba a8 88 bc 2a 54 ef 3d 2a 87 0e be
       0.13844277 -0.016682018 0.11685975 -0.13918748
0001b0 83 01 c9 bd 4f 7b 64 3c 32 75 00 3e 7a 6b 30 3e
       -0.098147415 0.013945415 0.12544706 0.17228499
0001c0 6a d1 f3 bd 77 e1 7f be 0d 27 00 3e 08 ba a7 3d
       -0.11905177 -0.24988352 0.12514897 0.081897795
0001d0 d7 59 6b be 7c 23 77 bd dc 16 33 be 63 67 88 bd
       -0.2298349 -0.060336575 -0.17489189 -0.066603445
0001e0 86 b2 29 3e f8 fa 5f be 6e 78 db 3d 43 1d 82 bd
       0.16572008 -0.2187308 0.107163295 -0.063532375
0001f0 8e 65 99 be 66 b9 67 be c7 a7 8c bd 5b c1 7b bc
       -0.29960293 -0.22629318 -0.068679385 -0.015365924
000200 cf a8 a3 bd ca 8b f1 3d ff 16 9c 3d 63 96 bd be
       -0.07991182 0.11794241 0.07621574 -0.37028798
000210 f6 c9 03 3e 16 1b a6 bd 03 05 ed bc df 59 3c 3d
       0.1287001 -0.08110635 -0.028933054 0.045984145
000220 36 f2 89 bd c1 0d de bd e3 5a ad 3d d1 70 8c bd
       -0.06735651 -0.10842467 0.08464601 -0.068574555
000230 b6 72 c2 3d 54 5a 11 3e db 9f 06 be 31 97 dd 3d
       0.094945356 0.14194614 -0.13146918 0.10819853
000240 ad a4 e3 bd e9 3f 75 3d 40 31 18 be 37 4c 5f bd
       -0.11115394 0.059875403 -0.14862537 -0.054516044
000250 b5 3b df 3d 31 cb 3c 3d 79 b0 4c be 68 a1 9a bd
       0.1090006 0.046092216 -0.19989194 -0.07550317
000260 bd 13 4d 3e 17 d5 0c 3e 8f 5f f3 3d 3f d2 95 bd
       0.20027061 0.13753162 0.11883461 -0.07315492
000270 1e 36 0c be b3 30 0f be 0b 7e 40 be ae db 33 bd
       -0.13692519 -0.13983421 -0.18798082 -0.043910675
000280 11 5b dc 3d 66 b6 9e bd 9f df 3f 3e da 75 3f be
       0.10759557 -0.077496335 0.18737648 -0.186973
000290 8d 51 fe 3d 27 d6 0f 3e 15 61 fd 3d 80 ec c7 bc
       0.12417898 0.14046536 0.123720326 -0.024404764
0002a0 a0 78 3b bd 42 13 6d be e3 ef 1d 3e 6a 36 4e be
       -0.045769334 -0.23151878 0.15423541 -0.20137945
0002b0 39 ef db bd 7f 81 9e be f6 af 2c be 8a 74 cd bd
       -0.107389875 -0.30958173 -0.16863999 -0.10031994
0002c0 e1 d0 48 bc 09 d6 d8 3d 25 a4 77 be bb 3d 06 3d
       -0.012256832 0.10587699 -0.2418371 0.032773715
0002d0 62 f1 96 bd 59 f6 b5 3d 16 dc 04 bd 75 89 60 be
       -0.07370259 0.08884878 -0.032436453 -0.21927436
0002e0 96 c7 e6 3d 6d d8 39 bc ec 75 2e 3d 66 a4 08 3e
       0.11268537 -0.011343104 0.042592928 0.13343963
0002f0 4a 68 a3 3d 7b 7f 81 bd 40 18 ea 3d e7 04 5a be
       0.07978876 -0.06323143 0.114304066 -0.21290933
000300 b9 9f 08 be 10 98 fb bc cc 38 0b 3d b0 a1 7c 3c
       -0.1334218 -0.030712157 0.033989713 0.015419409
000310 05 05 3d be 57 9f c8 bd b1 b9 3a be f5 ff eb 3d
       -0.18458946 -0.09796017 -0.18234898 0.11523429
000320 83 3f 4a 3e 0a d7 02 be 89 18 68 be 69 0a ec 3d
       0.1975079 -0.12777343 -0.2266561 0.11525423
000330 71 9f 7c be 84 fd 9d 3c 92 3e 9a bb 33 fb 53 bd
       -0.24670197 0.019285925 -0.004707166 -0.051753234
000340 99 c9 3d 3e e2 23 09 3e 32 d4 86 be 1e 79 49 be
       0.18533935 0.13392594 -0.26333767 -0.19675109
000350 85 ec bf 3c 9b f2 3a be 23 9d b5 bd ba 29 eb 3d
       0.023428211 -0.18256609 -0.08867862 0.11482568
000360 c0 14 8c 3d d7 85 cd 3d 2f 87 05 be aa cc 18 3e
       0.06839895 0.100352935 -0.1303985 0.14921823
000370 7d 64 b9 be 01 93 ac 3d 84 f5 f1 3d 52 e0 05 3e
       -0.3620948 0.08426476 0.118144065 0.13073853
000380 02 ce 39 be c6 43 5f be fe a6 b5 3d f5 f7 cc 3d
       -0.18144992 -0.21803197 0.08869742 0.100082316
000390 28 35 dc 3d 3d b3 b9 3d f3 e5 e6 3d f7 86 fc bd
       0.10752326 0.0906739 0.11274328 -0.1233043
0003a0 e6 55 2c bd 1e 14 23 3e c0 62 5c be 77 5b e6 3d
       -0.042074107 0.15925643 -0.21522045 0.11247914
0003b0 9c 2a 32 3c cc a6 e1 3d 98 7c 6b bd ab b3 b0 ba
       0.010874417 0.11018142 -0.05749187 -0.001348128
0003c0 0e 89 bb be 03 e3 16 3e 65 1a 88 3d 37 4d 4a bd
       -0.36628002 0.14735036 0.06645659 -0.049390044
0003d0 d8 34 e3 3d 8b 6f a9 3d 86 54 aa 3d 00 73 83 bc
       0.110940635 0.08273228 0.08316903 -0.016046047
0003e0 4a c3 16 bd 6c 3d c0 3d 69 83 9f be 81 ef f3 3d
       -0.036807336 0.09386715 -0.31154945 0.11910916
0003f0 7e 4c 52 3e 9a 42 21 be d5 64 7c be 31 02 51 bc
       0.20536992 -0.15748063 -0.2464784 -0.01275687

fc2.bias f4 [10]
000000 f0 46 19 be 7f 0d 0c bd dc 84 40 3e f6 3b 07 bd
       -0.14968467 -0.03419256 0.18800682 -0.033016168
000010 88 01 a8 3d c6 29 ca bd fc 77 3d 3d 2e 74 d3 3b
       0.08203417 -0.09871249 0.046257004 0.0064530587
000020 b9 30 2f 3e fb b7 f3 bd
       0.1710843 -0.11900326
